…
wandb: Run data is saved locally in /home/ubuntu/w251finalyolo5/wandb/run-20220729_192539-38vilnz2
wandb: Run `wandb offline` to turn off syncing.
wandb: Syncing run aic_sm_m
wandb: ⭐️ View project at https://wandb.ai/gabrielamaylagunes/YOLOv5
wandb: 🚀 View run at https://wandb.ai/gabrielamaylagunes/YOLOv5/runs/38vilnz2
YOLOv5 temporarily requires wandb version 0.12.10 or below. Some features may not work as expected.
Overriding model.yaml nc=80 with nc=32

                 from  n    params  module                                  arguments                     
  0                -1  1      5280  models.common.Conv                      [3, 48, 6, 2, 2]              
  1                -1  1     41664  models.common.Conv                      [48, 96, 3, 2]                
  2                -1  2     65280  models.common.C3                        [96, 96, 2]                   
  3                -1  1    166272  models.common.Conv                      [96, 192, 3, 2]               
  4                -1  4    444672  models.common.C3                        [192, 192, 4]                 
  5                -1  1    664320  models.common.Conv                      [192, 384, 3, 2]              
  6                -1  6   2512896  models.common.C3                        [384, 384, 6]                 
  7                -1  1   2655744  models.common.Conv                      [384, 768, 3, 2]              
  8                -1  2   4134912  models.common.C3                        [768, 768, 2]                 
  9                -1  1   1476864  models.common.SPPF                      [768, 768, 5]                 
 10                -1  1    295680  models.common.Conv                      [768, 384, 1, 1]              
 11                -1  1         0  torch.nn.modules.upsampling.Upsample    [None, 2, 'nearest']          
 12           [-1, 6]  1         0  models.common.Concat                    [1]                           
 13                -1  2   1182720  models.common.C3                        [768, 384, 2, False]          
 14                -1  1     74112  models.common.Conv                      [384, 192, 1, 1]              
 15                -1  1         0  torch.nn.modules.upsampling.Upsample    [None, 2, 'nearest']          
 16           [-1, 4]  1         0  models.common.Concat                    [1]                           
 17                -1  2    296448  models.common.C3                        [384, 192, 2, False]          
 18                -1  1    332160  models.common.Conv                      [192, 192, 3, 2]              
 19          [-1, 14]  1         0  models.common.Concat                    [1]                           
 20                -1  2   1035264  models.common.C3                        [384, 384, 2, False]          
 21                -1  1   1327872  models.common.Conv                      [384, 384, 3, 2]              
 22          [-1, 10]  1         0  models.common.Concat                    [1]                           
 23                -1  2   4134912  models.common.C3                        [768, 768, 2, False]          
 24      [17, 20, 23]  1    149517  models.yolo.Detect                      [32, [[10, 13, 16, 30, 33, 23], [30, 61, 62, 45, 59, 119], [116, 90, 156, 198, 373, 326]], [192, 384, 768]]
YOLOv5m summary: 369 layers, 20996589 parameters, 20996589 gradients, 48.6 GFLOPs

Transferred 474/481 items from yolov5m.pt
AMP: checks passed ✅
Scaled weight_decay = 0.0005
optimizer: SGD with parameter groups 79 weight (no decay), 82 weight, 82 bias
…
